final/dqn_model_train.pth (torch, 23128 bytes, 6 tensors)

fc1.weight f4 [64, 10]
000000 34 0b b8 bd ab 77 22 3f 29 6d 7d 3f fc a1 c2 3e
       -0.08986512 0.6346385 0.9899469 0.3801421
000010 89 f3 29 be 9e d3 8b 3f 9f 11 33 3f 6c 4f e7 3d
       -0.16596808 1.0923955 0.6994876 0.112944454
000020 40 73 20 3c d5 16 9e bc e3 c5 14 3f 2d 14 6b 3f
       0.009793103 -0.019297997 0.5811445 0.9182766
000030 a9 9a 8c 3d 8b 56 ee 3e 35 c6 c5 3e 15 ce 05 bd
       0.068654366 0.46550402 0.38627782 -0.03266724
000040 ef 03 2f 3f 70 e4 b1 3e e1 dd ae bd d5 e6 c5 3d
       0.6836538 0.34744596 -0.08538414 0.09663168
000050 44 69 78 3e e1 75 a1 3f 58 9f b2 3f f2 e3 9c bd
       0.24258906 1.2614099 1.3954878 -0.076606646
000060 3e d7 49 3d 6d 57 49 3e de 75 5e 3f 98 47 27 3f
       0.049277537 0.19662257 0.868986 0.6534362
000070 d1 84 07 3e 26 14 4a 3e f7 09 c7 3e 2a ff b8 3e
       0.13234259 0.19734249 0.3887479 0.36132175
000080 42 13 21 bc dd b3 86 bd 77 b1 de be 47 04 db 3e
       -0.009831252 -0.06577275 -0.4349477 0.427767
000090 33 0d 55 3d 84 55 e6 3d 2a 07 b9 be 3f d9 93 3f
       0.05201454 0.112467796 -0.36138278 1.1550673
0000a0 a4 ae 09 3f 27 15 1f 3f 18 4c 16 be de ca a2 3e
       0.53782105 0.6214165 -0.14677465 0.317954
0000b0 5c 4c 00 3f 8f d3 59 3e f3 28 1b 3f d3 a7 69 3e
       0.50116515 0.2127211 0.6060936 0.22817926
0000c0 b7 04 8b bf fc 2f 46 bc db 12 46 bf ca 99 a4 bf
       -1.0860814 -0.012096401 -0.7737252 -1.2859433
0000d0 ab ed 48 bf 3d cc eb be b7 71 48 bf 8b e5 9f bf
       -0.7848765 -0.4605426 -0.78298515 -1.2491926
0000e0 c3 d1 54 be 8f 14 b4 bf 47 14 2b 3e 34 a7 0d bf
       -0.20783143 -1.4068774 0.16706954 -0.55333257
0000f0 17 37 ba 3e 8a 3b 41 3e a9 c2 b5 3e bb bd b6 be
       0.36370155 0.18870369 0.35500076 -0.35691628
000100 2d d5 25 bf b0 f6 5e 3f 75 e1 a8 bd 65 e2 4e 3e
       -0.64778405 0.87095165 -0.082461275 0.2020355
000110 11 3f 6f bf 9e 10 96 3e 4e 17 42 be 12 fc 36 c0
       -0.93455607 0.29309553 -0.18954203 -2.8591352
000120 64 bb 23 be 34 dd d8 be f0 39 58 bf a2 2a 3c bf
       -0.15989453 -0.42356265 -0.84463406 -0.7350255
000130 33 c1 15 3d bb f3 53 be 69 0b a6 be 00 59 18 3e
       0.036561202 -0.20698445 -0.3243058 0.14877701
000140 6a 0c cc 3e 04 d0 2a 3f 99 dd c3 be 72 78 58 3d
       0.3985322 0.66723657 -0.38255003 0.05284924
000150 64 d4 c2 3d af 29 8b be 3d 96 09 3f 53 ee ea 3e
       0.095131665 -0.2718024 0.5374487 0.45884952
000160 e3 be 8f bf 1a 6c c2 3e a2 e0 dc 3e e9 f4 cf 3e
       -1.1230129 0.379731 0.4314013 0.4061654
000170 78 a9 65 3f 37 ea c9 3e ab 91 44 be 3a f8 cd 3e
       0.89711714 0.39436504 -0.19196193 0.40228444
000180 26 71 98 3e 9c 7a 0f 3f 5f 82 55 bc 32 a1 4c be
       0.29773825 0.5604646 -0.013031571 -0.19983366
000190 a4 d9 58 3e 9a bb 94 be 50 17 24 3e fd b6 b2 bd
       0.21176773 -0.2904938 0.16024518 -0.087263085
0001a0 01 20 df bd 5a 2c 8d be c4 a4 84 be 8c bc 8c be
       -0.10894776 -0.275729 -0.25906956 -0.274876
0001b0 d6 33 5b 3d 2b 0e 51 3c de 5d 1c 3f 11 5b d2 3e
       0.05351623 0.012759726 0.6108073 0.41085103
0001c0 e7 12 ce 3e 83 b5 1c 3e 54 15 ec 3e 77 6e 0d bf
       0.40248796 0.15303616 0.46110022 -0.5524668
0001d0 65 e2 91 3e 3c 86 8b 3f 6c 7a 18 be 1c 5d 8b 3e
       0.28493038 1.090034 -0.1489045 0.27219474
0001e0 2e ff 15 3f eb 20 09 3f 50 6d 0f bf 1d dd 41 3f
       0.585925 0.53565854 -0.5602617 0.7572802
0001f0 83 59 97 3e 3f 24 02 3f a6 28 44 3d 23 d4 85 be
       0.2956048 0.5083656 0.047890328 -0.2613841
000200 a7 74 ad 3f 82 33 cc 3c 70 fb e4 3e 66 30 1b 3f
       1.3551224 0.024926905 0.44723082 0.60620725
000210 2b 74 dd be b7 64 a8 3e cc 5d bd bd eb f4 88 3e
       -0.43252692 0.3288934 -0.09246406 0.26749358
000220 6f aa 5f 3c 78 3c 25 3e ee 6f 92 3b b5 1f 6e 3f
       0.013651474 0.16136348 0.0044689095 0.9301713
000230 fd 29 bd 3f a4 6a 09 40 41 df a8 3f 86 7b d5 3f
       1.4778439 2.1471338 1.3193132 1.6678321
000240 bf 46 11 40 f4 0e d1 3f a7 c0 c0 3f ae 6c 08 40
       2.269943 1.6332688 1.5058793 2.1316333
000250 8f d8 b8 be 48 cb 75 be fa 5d ff bf ca 3b bb be
       -0.3610272 -0.24003327 -1.9950554 -0.36569053
000260 0a a8 02 3f ea c6 6b 3d 19 69 27 3f d7 b4 44 3f
       0.5103766 0.057562746 0.6539474 0.7683844
000270 17 e7 e7 bc 0b 39 b9 be dd 29 c3 3f d6 39 c2 bd
       -0.028308434 -0.36176333 1.5247151 -0.094836876
000280 48 28 a7 3f 8c 14 9e 3f 0f d0 2e 3f 38 17 29 be
       1.3059168 1.235002 0.6828622 -0.16512764
000290 36 dc 45 bf 94 7d 5a 3f a1 01 a7 3e f5 95 8c 3d
       -0.7728914 0.85347867 0.3261843 0.068645395
0002a0 e0 78 41 bc 3a 71 81 bd be 00 3c 3e 70 72 da 3f
       -0.011808604 -0.063204244 0.18359658 1.7066174
0002b0 11 3e eb 3f 18 78 c0 3f 98 b0 f6 3f 1a 9a 11 40
       1.8378316 1.503665 1.9272642 2.2750306
0002c0 49 fc 22 40 ea 6a 4d 40 4b 37 0c bf b2 74 59 bf
       2.5466483 3.2096505 -0.5477187 -0.8494369
0002d0 1d f0 3d 3f 9b 83 30 3f b5 66 ac bd ea 29 a4 3e
       0.7419451 0.68950814 -0.08418027 0.32063228
0002e0 64 c9 ce be 44 52 88 3e a8 7a 53 3e b9 2e 2e bf
       -0.40388024 0.26625264 0.20652258 -0.68040043
0002f0 91 22 dd be 02 fa a5 bf e7 c5 0f 3f 36 d1 5d 3f
       -0.43190435 -1.2966921 0.5616135 0.86647356
000300 3c b0 c0 3e a4 32 97 3d ba 33 bd be c4 39 d7 3e
       0.37634456 0.07382706 -0.36953527 0.4203626
000310 c9 d4 24 3f 64 a4 1d 3f 9b 5e 22 bd e5 c1 89 3e
       0.64387184 0.61578965 -0.039641004 0.26905742
000320 ca a8 34 be 61 e4 a0 3f c5 f4 5c 3f a8 20 e8 bf
       -0.17642513 1.2569696 0.8631099 -1.8134966
000330 6a 56 de bf 16 38 2d 3f 90 8f c0 be c1 dc 42 3e
       -1.7370121 0.67663705 -0.3760953 0.19029523
000340 a1 f9 0c c0 fb 75 3f bc 38 f6 8e 3f cc 12 05 40
       -2.2027361 -0.011685844 1.116889 2.0792723
000350 3a 92 f2 3f e0 37 09 40 c4 12 0f 40 03 9a e2 3f
       1.8950875 2.1440353 2.2355204 1.7703251
000360 b1 9e ca 3f b8 a2 04 40 f5 69 82 3e e5 df c9 bd
       1.5829679 2.0724316 0.25471464 -0.098571576
000370 4a 14 5d 3f a7 10 76 3f bb 6c c0 bf 3d 0c bb bd
       0.86359084 0.9611916 -1.5033182 -0.09133194
000380 6e c7 b2 be 41 68 a7 3e 90 b1 67 bd 94 96 fc 3e
       -0.34917778 0.32696727 -0.05656582 0.49333632
000390 da 7c 7b 3d cb c0 79 3f 5a 53 04 40 b6 c9 1c 40
       0.061398365 0.97559804 2.0675874 2.4498115
0003a0 a1 dd 0f 40 7a 50 3d 40 ea 61 4d 40 61 99 11 40
       2.2479022 2.958037 3.2091012 2.2749865
0003b0 70 0c 09 40 6a e1 0c 40 b6 9e 6b be c3 ae f5 3d
       2.1413841 2.2012582 -0.23009762 0.11996224
0003c0 79 da c0 bf 9f ac 8b bf cb d8 f9 bd f4 64 13 bf
       -1.5066673 -1.0912055 -0.12199553 -0.5757592
0003d0 bf 74 82 bf 17 07 31 bf fd 85 ba be b6 a2 91 be
       -1.0191878 -0.69151443 -0.3643035 -0.2844445
0003e0 a4 e2 04 3f 10 60 4f ba 39 bd 7f 3e dd 6e b7 3e
       0.51908326 -0.0007910738 0.24974526 0.3582677
0003f0 f4 eb c5 3c e7 79 70 3e d2 eb 82 bd 04 21 df 3e
       0.024160363 0.23484002 -0.063926354 0.43579876

fc1.bias f4 [64]
000000 22 5b 74 c0 38 01 38 c0 07 64 2e c0 f2 28 fc bf
       -3.8180623 -2.8750744 -2.7248552 -1.9699996
000010 50 43 19 c0 94 a0 a9 be a7 0f fe bf a8 2f ea 3c
       -2.3947334 -0.33130324 -1.9848527 0.028587177
000020 a8 5b 14 c0 3c e1 15 c0 de f0 1f be 8c e0 90 40
       -2.3180943 -2.3418722 -0.15619227 4.5274105
000030 1a 97 2f c0 fc ed 30 c0 75 89 cc 40 3a be 39 be
       -2.7435975 -2.7645254 6.3917794 -0.18138972
000040 eb 93 6e c0 91 41 ad 40 d7 9a 10 c0 8f b6 3b c0
       -3.7277782 5.4142537 -2.2594507 -2.9330175
000050 cc a6 cf 3e 1c 43 d3 40 04 26 1c c0 c9 b7 d0 40
       0.40556943 6.601942 -2.4398203 6.5224347
000060 54 68 e1 bf 69 67 2f c0 f8 29 e1 3f cb b5 16 c0
       -1.7609963 -2.7406867 1.7590933 -2.3548458
000070 82 b3 33 c0 e9 58 cf 40 72 60 d6 40 ce 68 b9 bf
       -2.8078313 6.4796033 6.699273 -1.4485109
000080 44 e3 cf 40 ff f8 58 c0 5e a7 aa 3f d1 17 3c c0
       6.4964924 -3.3901975 1.3332326 -2.9389536
000090 0b 66 39 c0 e4 fa 15 c0 be 5a 68 c0 ac dc 2c c0
       -2.8968532 -2.3434381 -3.6305385 -2.7009687
0000a0 2d c8 2d bf d2 fa b5 40 44 80 5b c0 03 4c 10 3e
       -0.6788357 5.6868677 -3.4297037 0.14091496
0000b0 f9 8e b8 40 69 7d 1d c0 d3 0c 34 c0 5a 36 93 40
       5.7674527 -2.4607794 -2.8132827 4.6003847
0000c0 0f 41 04 3e ba 84 da 40 95 fa 0a 3e 72 76 36 40
       0.12915443 6.828702 0.13572152 2.8509793
0000d0 c9 77 77 40 a5 12 0b c0 47 b6 80 3e eb 47 c6 40
       3.866686 -2.173013 0.25139067 6.196279
0000e0 10 94 1d c0 6e 59 ae bf a6 e4 69 3f 36 f4 28 c0
       -2.462162 -1.3621042 0.91364515 -2.6399055
0000f0 ef 75 cf 40 92 33 86 3f 8a 4f c7 40 7f b0 fe bf
       6.483146 1.0484488 6.2284594 -1.9897612

fc2.weight f4 [64, 64]
000000 1f b4 73 40 13 f0 8c 3f 04 17 50 3f 58 ba c1 3e
       3.8078687 1.1010765 0.8128512 0.37837481
000010 73 a3 a0 3f f9 c6 06 c0 35 24 e2 be b5 26 86 bf
       1.2549881 -2.1058943 -0.4416825 -1.0480562
000020 84 89 a6 3f c3 db 33 3f 16 3c 1e bd 09 db bd bf
       1.3010716 0.70257205 -0.03863152 -1.4832469
000030 65 8a d0 3e b9 22 88 3f d4 b2 2d 3e 08 8e c7 3d
       0.40730587 1.0635597 0.16962749 0.09743887
000040 1c 86 60 40 a6 94 bd 3e 9a 40 0a 3f 6a 89 ab 3f
       3.5081854 0.37027472 0.54004824 1.340131
000050 14 90 8b bf 55 03 8f be 1b b9 73 3f 29 db bb 3e
       -1.0903344 -0.2793223 0.95204324 0.36690643
000060 1d 4c 51 3f 56 63 a2 bd a3 22 ea bf eb 70 20 3e
       0.81756765 -0.07929103 -1.829182 0.15668075
000070 0f 4a 9f 3f 98 01 00 bc 8c a0 4a 3d b7 32 b3 be
       1.2444476 -0.00781288 0.049469516 -0.3499963
000080 20 14 45 be 52 ce fb 3f 78 c2 2d be 22 7f f1 3f
       -0.19245958 1.9672339 -0.16968715 1.8866923
000090 da 8a 01 40 e7 a5 73 3f c4 bc 31 40 cb be 9e 3f
       2.0240998 0.9517502 2.7771463 1.2401975
0000a0 f2 a4 be be 62 7c df 3e 4c 16 1c 40 57 7e 2f bf
       -0.37235218 0.43649584 2.438861 -0.68552154
0000b0 01 bf e5 be 21 c7 8d 3f 89 4a 50 3f 14 49 5d 3e
       -0.44872287 1.1076394 0.8136373 0.21609908
0000c0 8f 08 93 bf 13 fe b5 bc a9 0a 86 be 25 25 c0 c0
       -1.1486987 -0.022215879 -0.26180008 -6.0045342
0000d0 86 64 11 c1 eb 9e 92 3f c4 25 41 3c c4 40 8c 3d
       -9.087042 1.1454748 0.011788789 0.068482906
0000e0 af bc 86 3f b4 5b 50 3c 03 3d bc bf f4 be fb 3e
       1.0526332 0.012717176 -1.4706119 0.49169123
0000f0 92 c3 26 3d 92 73 8d 3e e1 47 3c 3e 49 bf 89 3c
       0.040713854 0.27627236 0.18386795 0.016814845
000100 02 5c b3 bd 10 96 a5 bc fc 7c b0 3d 14 2f de bd
       -0.087577835 -0.020213157 0.08617589 -0.10848823
000110 6e 37 e4 3d c3 a5 3b bc 4c 82 3e bd 6c 6e c5 3c
       0.11143385 -0.011453095 -0.04651098 0.024100505
000120 5d ff 26 bc 8a b8 9b bd 5c 89 56 3d d9 e7 9c bd
       -0.010192719 -0.076035574 0.05237709 -0.07661409
000130 15 b7 0a bc dc cf a5 3c e0 e2 66 3d cf f2 40 3d
       -0.008466502 0.020240717 0.05636871 0.04710656
000140 d7 c3 77 3d 82 17 08 be 23 c4 5a bd 02 50 b5 bb
       0.0604895 -0.13290218 -0.053409707 -0.0055332193
000150 58 2d 5e 3d 24 5b 37 bd 81 4f 74 3d 08 6a e0 bd
       0.054242462 -0.044764653 0.059646133 -0.10957724
000160 00 b5 98 ba d7 8f da 3c 80 4c 3f bb e6 b5 ac bc
       -0.0011650622 0.026679916 -0.0029189885 -0.02108283
000170 2f 12 f7 3c 52 93 0f be bb 70 d7 bd a6 31 8b 3b
       0.030160038 -0.14021042 -0.105195485 0.004247862
000180 2f ed 97 bc 47 e0 b0 3c c0 9b ce bc f8 43 4c 3d
       -0.018545715 0.021591319 -0.025220752 0.049869508
000190 7e 9e 95 3d e8 64 27 bd af 06 e9 3d 65 2f 90 bd
       0.073056206 -0.040867716 0.11378228 -0.0704029
0001a0 c3 1e 71 3d f5 86 bd 3d 0e cb e2 bc 0f 93 ac 3d
       0.058867227 0.09254257 -0.027684715 0.08426487
0001b0 20 60 b9 3d a2 5f 1a be 1c 40 bc bd 30 1a 98 bc
       0.090515375 -0.15075544 -0.091919154 -0.018567175
0001c0 64 9f 1f 3d 04 a2 4f bd 04 16 a1 bc cd 18 25 bd
       0.038970366 -0.05069162 -0.019663818 -0.040306855
0001d0 50 3f a4 bc c6 a1 94 3d c0 4d f1 bd ec 4a 82 bd
       -0.020049721 0.07257418 -0.11782408 -0.063619465
0001e0 84 62 cc bd 2d c3 05 be d1 00 df 3d e3 be c2 3d
       -0.09979728 -0.13062735 0.108888276 0.09509065
0001f0 1e 8d a2 bd 58 96 07 3d 05 2d d1 bd de 93 86 bd
       -0.07937072 0.033102363 -0.10213665 -0.06571172
000200 f2 c0 1f 3f d7 6f d3 be eb dc fc 3d c6 54 68 be
       0.62403786 -0.41296265 0.12346824 -0.22688589
000210 f5 6b f8 be 24 9e 69 bd 86 bd b3 be 34 ba a7 be
       -0.48519865 -0.05703558 -0.35105532 -0.3275925
000220 74 d8 bf bc 18 76 36 be 64 ad 22 3d 0c 28 83 bf
       -0.023418643 -0.17818487 0.03971614 -1.0246596
000230 5a b4 70 3f ed ac ed be ec b9 82 bf 81 36 37 3f
       0.94025195 -0.46420994 -1.0212989 0.7156754
000240 65 9a 7d 3f 9b e3 a7 bf fc 72 23 bd d8 4d 94 be
       0.9906371 -1.3116335 -0.03990458 -0.2896564
000250 8e 7c f1 bd f9 80 c8 3d 74 af 32 bf b9 84 66 be
       -0.11791335 0.097902246 -0.6979897 -0.22511567
000260 d5 b9 88 3f 3d e6 43 3f 56 3b c9 bf 49 c5 4b bf
       1.0681711 0.7652319 -1.5721233 -0.7959791
000270 ae ef b2 be 10 78 44 bf 39 76 35 be d7 42 57 bf
       -0.34948486 -0.767457 -0.1772088 -0.84086365
000280 7e e1 28 bf f2 2a 1a 3f 07 07 3f bf 51 ad e8 be
       -0.65969074 0.6022178 -0.746201 -0.4544473
000290 e6 f7 e4 bd e3 49 6d bf 66 a9 a3 3e c2 9f d7 bc
       -0.111800954 -0.9269087 0.31965178 -0.026321296
0002a0 55 d1 bc be fc a4 01 3f 96 a5 45 3f 53 3b 2f be
       -0.36878458 0.5064237 0.7720579 -0.17112474
0002b0 c9 45 86 3e fb 75 c8 3d 1d f4 74 3f 9c 57 17 3e
       0.26225117 0.09788128 0.9568499 0.14779514
0002c0 7c 31 69 be 6a 7c 9b 3d 63 29 04 bf 13 f0 1d c0
       -0.22772783 0.075920895 -0.5162565 -2.467778
0002d0 d1 dc 53 c0 4e 30 66 bf 03 89 14 be 45 6b a2 bd
       -3.3103526 -0.8991746 -0.14505391 -0.07930616
0002e0 b1 8f ad bf 37 b6 d8 3e 4d fe 7f be b9 6b 44 bd
       -1.3559476 0.4232652 -0.24999352 -0.047954295
0002f0 9a d8 8e be 87 c2 f3 be c6 75 57 bd 5f 43 d7 be
       -0.2789963 -0.4760935 -0.052602552 -0.42043588
000300 82 ae 15 3d af 86 7c be 04 b7 96 3e 14 0c 91 3c
       0.036543377 -0.24660753 0.29436505 0.017705955
000310 19 11 49 be 22 3b 22 be 3e b2 28 bd 09 81 82 be
       -0.19635428 -0.1584287 -0.04118561 -0.2548907
000320 e7 cf 1c be bb cf 08 3e 34 59 8c bd 44 8a 40 be
       -0.15313683 0.13360493 -0.06852952 -0.18802744
000330 5c 0a ac 3e 00 c3 85 3e 68 f8 d8 be f3 26 0c 3e
       0.33601654 0.26125336 -0.4237702 0.13686733
000340 95 4b 9f 3d aa 56 c6 3c 23 85 b6 3e fd 83 b2 3e
       0.07778088 0.024211247 0.3564845 0.34866324
000350 ed a9 62 3d 80 83 68 be 09 13 0c be f2 ac 93 bd
       0.055337835 -0.22706413 -0.13679136 -0.07210721
000360 bf 62 e6 3e 0a e1 98 3e b4 20 9d 3e 63 5d 33 3e
       0.44997212 0.2985919 0.30689013 0.17516093
000370 eb 95 a6 3e 28 46 18 bf a8 a1 1d bf 1d 85 a7 be
       0.32536253 -0.5948205 -0.6157479 -0.32718745
000380 bb a8 30 bf 61 06 aa 3e ea 39 44 3e 2d cf cd 3d
       -0.6900746 0.33207992 0.19162717 0.10049281
000390 d4 6c b3 3e f7 19 af 3e a0 2a b1 bc 81 ff 83 bd
       0.35043967 0.34199497 -0.02162677 -0.06445218
0003a0 b7 e8 be 3e 40 b4 5c bd d9 e5 85 3e 50 2d 8b be
       0.37286922 -0.053882837 0.26151922 -0.27183008
0003b0 e3 67 bf 3d b8 54 12 3d 6c 44 9e 3e 74 21 4e 3e
       0.09345987 0.035725325 0.30911577 0.20129949
0003c0 57 57 05 bd 5c 5b d7 be cf db 32 be 81 4b 8b 3e
       -0.032553997 -0.4206189 -0.17466663 0.27206042
0003d0 8d f9 b6 3e eb e4 10 3f 12 ba 54 3d 05 62 ba bd
       0.35737267 0.565993 0.051935263 -0.09100727
0003e0 08 12 96 3e 72 2c 5d 3e 58 87 a7 3e f9 df 72 3d
       0.29310632 0.21598986 0.32720447 0.05929563
0003f0 77 d7 a2 be de 21 8d 3e 63 ac a5 be a5 2d 27 3e
       -0.31805012 0.275649 -0.32358083 0.16326006

fc2.bias f4 [64]
000000 f0 6d 71 c0 75 ce 97 bc 93 41 2c bf 48 c9 eb be
       -3.772335 -0.018531064 -0.6728756 -0.46052003
000010 95 d6 88 bf d9 02 ac 3d 55 5e 4d bf d5 4d 0a c0
       -1.0690485 0.08398981 -0.80222064 -2.1610005
000020 d2 f6 ff 3c 62 1d 21 bf 2f 0e 05 bf b9 52 8c bf
       0.031245623 -0.6293546 -0.5197477 -1.0962745
000030 2a e5 70 c0 79 b9 de be 00 ea 63 c0 dc 71 dc 40
       -3.763987 -0.4350088 -3.5611572 6.888899
000040 0f a2 12 be 28 a1 f2 bc b4 57 bc bd 47 13 e3 bf
       -0.14319633 -0.02961786 -0.091964155 -1.7740258
000050 25 08 59 c0 a7 04 46 c0 d9 80 24 c0 b2 ee 54 c0
       -3.391122 -3.094034 -2.5703642 -3.3270688
000060 9b 1a 73 be 46 ef c4 bf 65 0e b9 3d b5 b1 2b c0
       -0.23740618 -1.538552 0.09035949 -2.6827214
000070 da 0c 4c 3f 0d ea f4 bd 65 8f 6d c0 46 c3 a2 bf
       0.7970711 -0.11958704 -3.711877 -1.2715843
000080 d9 da 57 bf 5e 62 51 c0 7f 41 fe be 08 e7 3c bf
       -0.8431831 -3.2716289 -0.49659345 -0.73790026
000090 80 4e 05 3d 6e ac dd bf 8f fd 3e 40 d3 dc 9f bd
       0.032545567 -1.7318246 2.984226 -0.07805791
0000a0 05 e4 d2 40 ac 05 df bd 3e 0a c3 be 96 1d ce 40
       6.5903344 -0.10889754 -0.38093752 6.4411116
0000b0 3f f7 f8 be 51 45 02 3d 8a 9e 62 c0 70 66 c5 3c
       -0.48626134 0.031804387 -3.5409265 0.024096698
0000c0 d3 b7 cf bf 50 7f 15 c0 77 01 5b c0 0e 59 d6 40
       -1.6227974 -2.3358955 -3.4219644 6.698371
0000d0 59 9c 90 bf d1 38 72 c0 06 98 2a c0 e2 fa 2c bf
       -1.1297714 -3.7847178 -2.6655288 -0.67570317
0000e0 68 50 fe be 1e f3 75 c0 88 61 75 c0 56 a9 36 bf
       -0.4967072 -3.8429637 -3.8340778 -0.71352136
0000f0 77 57 2e be d6 ef 61 bf ee f9 c6 3d 2f 52 7e be
       -0.17025553 -0.88256586 0.09715639 -0.24836038

fc3.weight f4 [4, 64]
000000 b1 ba 0e c0 0e eb 6c bc 5c 06 09 bf 6d e7 b0 be
       -2.2301447 -0.014460338 -0.5352533 -0.34551564
000010 ba db 68 bf ba 1d cc 3d c5 1c 79 be 2a c9 fb be
       -0.90960276 0.099666074 -0.24327381 -0.49176913
000020 08 f0 a9 bd 6d f1 f9 bd b1 c7 a9 bc bf 10 0e bf
       -0.082977355 -0.122042514 -0.020725103 -0.554943
000030 59 55 f1 bf de cf 11 40 77 0a c2 bf 1a f1 e3 3f
       -1.8854171 2.2783122 -1.5159444 1.7807953
000040 5d 92 b4 3d fc 3c 64 3d 86 ca fe 3d fc f7 b1 bf
       0.08816979 0.05572222 0.12440972 -1.3903804
000050 76 4d c3 bf ba 52 b7 bf e3 65 98 bf 4c 59 bd bf
       -1.5258014 -1.4322121 -1.1906093 -1.4792876
000060 64 a3 2f c0 e8 28 2f 3f 64 93 ef 3c 9d ae 00 bf
       -2.7443476 0.68421793 0.029245086 -0.5026644
000070 aa 53 8d 3f 1a c9 da bc 60 70 a1 bf 04 5e 01 c0
       1.1041157 -0.02670722 -1.2612419 -2.0213633
000080 09 76 09 bc 10 ad c2 bf 58 ff 0b 3c 6c 6e 0b bf
       -0.008389958 -1.5209064 0.008544765 -0.54465365
000090 44 bb 0c 3d 4c 44 9b bf b1 ea e5 3f 88 ec 0c 3d
       0.034358278 -1.2130218 1.7962247 0.03440526
0000a0 8e 49 05 40 41 82 fb bb 15 3d b6 be 82 4f 02 40
       2.0826144 -0.0076754396 -0.35593477 2.0361028
0000b0 41 af e7 be ea 81 ca 3d e3 93 28 bf 48 7d ef 3c
       -0.45250896 0.098880604 -0.6585066 0.029234543
0000c0 1d aa 26 3f c4 65 d0 be af 8a 1f c0 6d b8 cb 3f
       0.6510332 -0.4070264 -2.4928396 1.5915657
0000d0 09 16 95 bf 80 6e a9 bf 5d fa 7f bf 3c 2b 71 bf
       -1.164735 -1.3236847 -0.999914 -0.94206595
0000e0 57 a3 83 3f cd ea f6 bf de 31 8f bf a2 2c 87 be
       1.0284222 -1.9290406 -1.1187093 -0.2640124
0000f0 81 11 bb bb d8 27 c3 be c0 ea de bc c6 35 04 3f
       -0.0057088737 -0.38116336 -0.027211547 0.5164455
000100 08 31 ff bf b8 d7 d4 3d d5 80 e4 bf 1b e1 31 be
       -1.9936838 0.103927076 -1.7851816 -0.17371027
000110 a6 0f 4e bf 18 73 da bb 9d f7 14 be b6 fd b6 bf
       -0.8049263 -0.0066665523 -0.14547582 -1.4296176
000120 f8 f4 0c be 2c dd 59 be d5 cc 00 bf 85 a8 24 bf
       -0.13765323 -0.21275777 -0.5031255 -0.6431964
000130 1b 70 b6 bf e1 fc c3 3f aa f1 c3 bf 25 a1 f9 3f
       -1.4252962 1.5311548 -1.5308125 1.9502302
000140 9a 17 ce 3d f6 ee bb 3d 98 cb bd bc d6 83 d4 bc
       0.100630954 0.091764376 -0.02316837 -0.02594177
000150 c3 60 03 c0 d8 6a 03 3e 87 05 9f bf d3 1a e5 bf
       -2.0527809 0.12833726 -1.2423562 -1.7898811
000160 2b 75 52 bf 7b de df bf 81 f8 43 bd 5d f5 7a bf
       -0.82210034 -1.7489771 -0.047844414 -0.98030645
000170 22 be 68 40 96 04 ad 3d a5 d3 05 c0 36 93 3a 3f
       3.6366048 0.0844814 -2.0910428 0.72880876
000180 b5 10 dc be 9d c6 0b c0 36 6d da be e2 16 1e 3d
       -0.42981496 -2.1839974 -0.42661446 0.03859604
000190 dc bf 94 bd df 81 06 bf b6 be ed 3e 52 a9 84 3d
       -0.07263157 -0.5254192 0.46434563 0.06477608
0001a0 6b b0 0b 40 eb 6d a3 3c 82 e5 07 bf b6 c3 e6 3f
       2.1826427 0.019949874 -0.53084576 1.8028476
0001b0 f5 a6 59 be 87 98 22 bc 24 1e ff bf aa e0 bb bd
       -0.21255095 -0.009924061 -1.9931073 -0.09173711
0001c0 d5 c3 cb be cd e0 35 3c 33 b7 fd be cb 8e 04 40
       -0.39797845 0.01110096 -0.49553832 2.0712154
0001d0 c0 21 25 be 77 27 bf bf ef 6c 06 3f e3 1a 10 c0
       -0.16126156 -1.4933919 0.5250997 -2.251641
0001e0 5d 98 96 3f af f3 05 c0 35 a6 f4 bf 92 25 c8 ba
       1.1765248 -2.0929983 -1.9113222 -0.0015269986
0001f0 4a 44 8f bd d7 16 88 be ce c5 ba 3b 5f 0e 04 c0
       -0.06995447 -0.26579925 0.0056998497 -2.0633771
000200 6d 78 9e bf 27 4c 31 3d 92 9c a4 bf be 3b da be
       -1.2380501 0.043285515 -1.2860281 -0.42623705
000210 d2 95 a2 be 0d c8 9c 3d bd da c2 be ca 99 4a bf
       -0.3175493 0.07655344 -0.3805751 -0.79140913
000220 31 a8 3f 3c e5 d4 bf be d2 4e 30 bf 36 c3 f5 be
       0.011697815 -0.37467113 -0.6887027 -0.48000497
000230 24 bc d9 bf df 91 8b bf c1 3e e3 bf fa 4f 13 40
       -1.7010541 -1.0903891 -1.7753526 2.3017564
000240 5f 12 f3 bd 90 39 4f 3c 0e 20 b8 3d e8 4e 79 bf
       -0.118687384 0.012648001 0.08990489 -0.97386026
000250 e9 7b d0 bf e8 02 b8 bf 07 e5 4b bf ef 34 63 bf
       -1.6287814 -1.4375887 -0.79646343 -0.88752645
000260 de 64 3e 40 f2 2f 1c c0 95 ba 45 3d 30 88 ca bf
       2.9749064 -2.4404263 0.04827364 -1.5822811
000270 cf 72 82 3f 66 19 3c 3c 23 3e b4 bf f4 42 27 c0
       1.0191287 0.011480665 -1.4081463 -2.6134615
000280 7c a1 43 bf 30 9c dc bf 9a f7 40 bf 23 c9 80 bf
       -0.7641828 -1.7235165 -0.7537781 -1.0061382
000290 58 7c 63 bd be 4f eb be 11 d4 a3 3e 42 e0 a9 3d
       -0.055538505 -0.45959276 0.3199773 0.08294727
0002a0 bd 74 fb 3f b7 f2 77 3d ca d9 e8 be 33 cd c5 3f
       1.9645001 0.060534205 -0.4547866 1.5453247
0002b0 bc b1 7a be fb a7 3f 3b 5f 6b f5 bf 96 b9 95 3d
       -0.24481863 0.0029244411 -1.9173392 0.07310788
0002c0 8d c5 1c 3d 3e 10 86 bf af 25 b0 bf b8 ba 0f 40
       0.038274337 -1.0473707 -1.37615 2.2457714
0002d0 5c 82 55 3f db 06 c8 bf f1 2b 53 bf 1a 15 37 bf
       0.8340204 -1.5627092 -0.82488924 -0.71516573
0002e0 d3 d8 1d 3f 79 91 8e bf b3 e9 c4 bf ed e9 0d be
       0.6165897 -1.1138145 -1.5383819 -0.13858767
0002f0 eb f1 de 3b ba 87 9b be 98 e2 81 3d ae 39 8a 3f
       0.006803741 -0.3037699 0.063420475 1.0798852
000300 d9 30 54 bf c2 ff 98 3d 58 fb b0 bf 15 ce a1 be
       -0.82887036 0.07470657 -1.3826704 -0.3160254
000310 e3 f7 20 bf 52 77 04 3d 93 4f 8b be f9 67 66 bf
       -0.62878245 0.032340355 -0.27209148 -0.900024
000320 59 1a d6 3d 5c a3 e0 bd 48 dc b3 be 60 f8 d2 be
       0.10454244 -0.10968658 -0.35129 -0.4120512
000330 2c 31 33 bf 61 7e b9 3e 6f 76 72 bf 27 75 0e 40
       -0.69996905 0.36229232 -0.94711965 2.2259004
000340 2b b3 b4 3c 28 aa f4 3c f0 40 56 bd b9 26 9d bf
       0.02205809 0.029866293 -0.052308023 -1.2277442
000350 f4 38 87 be f3 fd 96 bf d6 54 8a bf 00 dc 07 c0
       -0.2641064 -1.1796249 -1.080714 -2.1228027
000360 44 9e 9f be 0a 38 b8 bd d3 59 bb bc 3f f9 59 c0
       -0.31175435 -0.089950636 -0.02286998 -3.4058378
000370 5a 7a 9d 3e 64 94 d6 bd 68 99 c7 bf f3 e9 d1 bf
       0.3075741 -0.10477522 -1.5593691 -1.6399521
000380 a7 ef 3a bf 06 4b ec bd b1 31 c5 be ca f8 89 bf
       -0.7302193 -0.11537747 -0.38514474 -1.0779049
000390 b4 42 c4 3d 13 74 ab be 45 cf 04 40 2d 34 83 bd
       0.09583035 -0.33486995 2.0751507 -0.06406436
0003a0 b3 38 d8 3f cc 9a f5 3d f4 6c 16 be 61 8d e5 3f
       1.6892303 0.11992416 -0.1469 1.793377
0003b0 71 c6 e1 be 61 21 a1 3d 17 38 a2 bf ca 58 a1 bd
       -0.4409671 0.07867695 -1.2673367 -0.07878263
0003c0 de 81 28 3f 1d 3f 62 c0 99 d2 ba bf e3 13 ce 3f
       0.6582316 -3.5351021 -1.4595519 1.6099819
0003d0 e2 b3 70 3f 52 4e cb bf cb 42 66 bf cb 94 98 bf
       0.9402448 -1.5883276 -0.8994567 -1.1920408
0003e0 88 43 9f 3f c7 15 ac bf 3e f0 bc bf 74 90 3d be
       1.2442484 -1.3444146 -1.4760816 -0.18512136
0003f0 58 ea b6 bc 0a 15 ab be 93 9f 10 3d d7 5d ff 3f
       -0.02232854 -0.3341449 0.03530843 1.9950513

fc3.bias f4 [4]
000000 c2 aa 50 40 cd ac 4c 40 ca 71 42 40 8c 7e 4e 40
       3.2604222 3.198047 3.0381951 3.2264738
